gradient/MNIST_demo.pt (torch, 514470 bytes, 6 tensors)

block.0.weight f4 [16, 1, 3, 3]
00000000: d4f5 8b3e bbb7 d63e dd38 6e3e 7832 463d
00000010: c211 553e 3386 ea3e 29cf f1be d538 0ebe
00000020: 44d7 503e 4763 923e 0ea9 6abe cd04 343e
00000030: 1326 09bf bdb3 803e 0e79 103f 3e2b 01bf
00000040: 4f7d a03d ad20 f63e 667d e63d 0e65 3e3e
00000050: 2b11 2bbf 645e 143f 19c9 28bd 8b48 3fbf
00000060: d0d6 6a3f d903 023f b615 4cbe dbb9 4dbf
00000070: c4cc cfbe 7b73 e5be 2ce3 47be 8751 75be
00000080: 192c babe 7490 303f a673 ba3e 5a5e 633d
00000090: 5c8e 5cbe 2ad2 e93b 5d48 b7bd d863 6b3e
000000a0: 828a 9a3e 8fb4 a43e f75f f8be 87cf 78bd
000000b0: 8cb0 a23d 224b 48be 7c25 aa3e 2a8e f23d
000000c0: b60e 0f3f 529c 043f ce6c cabe f441 963e
000000d0: 4565 563e 8eda 053e 192b ba3e 5fd6 ad3d
000000e0: 2911 25bf ca68 903e 420f 81be 4451 d4be
000000f0: 6ee2 1c3f dcde e23e eead 823d 797d 4a3e
00000100: ee29 1c3e 0c3e a63e 0568 f13d 0ae3 0d3e
00000110: 753c b13e 0f3a 793e 3517 023f 507b f6bd
00000120: 824c b63e 5a18 6cbe b169 56bd 103a e13e
00000130: 4231 e33e 3768 133e 75dd a0bc 2b2a ab3e
00000140: 8877 91be 319c f93e c3a7 bd3e 8222 013f
00000150: a489 98be bf69 aa3e 5016 9abd 3a77 09bf
00000160: 878d e0bc bb49 453e 00f3 ad3e b0c3 a3be
00000170: 5977 03be 468c 9fbe aa6f 33be 49a2 ec3e
00000180: 58be 683d f0c1 ae3e ed79 413f 008d 373f
00000190: 886c 143f ef7d 1a3f fb33 973e 3725 53be
000001a0: e91c 3abe 043a 9a3c 495b 07bf 6e0a 34bf
000001b0: e95a a03e c75d 65bc dbbd d03e ddef 013f
000001c0: 7678 be3e e0b7 bf3d f317 99be c63f 0cbf
000001d0: 053f a4be 6bee 56bd 83c6 9abe 8b65 26be
000001e0: 3000 89bd 3912 193e a09f 6cbe 7377 45be
000001f0: de9d 8dbe 6bd5 8dbd 4401 6dbe 06c2 12be
00000200: 0a2e af3d 09dd ff3e dc4c bbbd b39d 713d
00000210: 21d4 033f 4fb5 56be 6015 9cbe 6c97 22bf
00000220: e610 a4be aaf0 24be 1b68 d9bd 55eb e13c
00000230: 3b12 963e 6d4b 3c3e 25a3 5d3e 4545 783e
0.2733599 0.4193705 0.23263879 0.048387975 0.20807555 0.4580551 -0.47228363 -0.13888867
0.20394617 0.28591368 -0.22916052 0.17579956 -0.5357372 0.2513713 0.56434715 -0.5045661
0.07836401 0.48071805 0.112543866 0.18593237 -0.6682307 0.5795653 -0.041207407 -0.74720067
0.9173403 0.5078712 -0.19930157 -0.8036172 -0.4058591 -0.44814667 -0.19520253 -0.23956881
-0.3636177 0.6897042 0.36416358 0.055509903 -0.21538681 0.007135649 -0.08949349 0.22987306
0.30183798 0.32169005 -0.48510715 -0.06074479 0.0794383 -0.19559911 0.33231723 0.11843522
0.5588182 0.51801026 -0.39536136 0.29347193 0.20937069 0.13071653 0.36361006 0.08488154
-0.6447931 0.28204948 -0.25206953 -0.4146825 0.61283004 0.44310653 0.06380831 0.19774427
0.1525037 0.32469213 0.11787418 0.1385614 0.34616438 0.24338554 0.5081666 -0.12035239
0.35605246 -0.23056164 -0.05234689 0.4398961 0.44373518 0.14395224 -0.019636849 0.3343061
-0.28411508 0.48751977 0.37042055 0.5044328 -0.2979251 0.33283803 -0.07523787 -0.5369755
-0.027411235 0.19266407 0.33974457 -0.31985235 -0.12838496 -0.31161708 -0.17523065 0.46217564
0.05682215 0.34132338 0.7557667 0.71699524 0.57978106 0.6034841 0.29531845 -0.20619665
-0.18175091 0.018826492 -0.52873665 -0.70328414 0.3131936 -0.013999409 0.40769848 0.5075663
0.3720128 0.09361243 -0.29901084 -0.5478481 -0.3207933 -0.052473467 -0.30229577 -0.16249673
-0.06689489 0.14948358 -0.23107767 -0.19283848 -0.27659506 -0.06925472 -0.23145014 -0.14331827
0.08553703 0.49973324 -0.09145519 0.058988284 0.5149556 -0.20967601 -0.30485058 -0.635123
-0.32044142 -0.16107431 -0.1061556 0.027578035 0.29310784 0.18388148 0.21644266 0.24245174

block.0.bias f4 [16]
00000000: 3133 2a3e 6357 803c 8c9d 45bb ccf5 6d3e
00000010: 9f64 953d ee0b adbd 8290 e3bc b0ae 7ebe
00000020: 8a48 d6bb 9ddd 00bc d902 91bb ac7e a03d
00000030: 677e 003d 8a08 06be e491 9e3d c79d 613e
0.1662109 0.01566667 -0.003015372 0.23238295 0.072945826 -0.08449541 -0.027778868 -0.24871325
-0.006539409 -0.007865337 -0.0044253883 0.07836661 0.031370547 -0.13089195 0.0774267 0.22032844

block.2.weight f4 [16, 16, 3, 3]
00000000: 8a0c c93d f45b f43d 34e8 f63d 3a9f cbbd
00000010: 3463 4fbd f1eb b8bd 71e1 223c 937f 93bd
00000020: 2ba0 b1bc 490f 7abd f877 83bd b113 bd3d
00000030: 957a c7bd a103 07bd 1809 75bd d4b9 e6bd
00000040: 1774 8ebd 05c1 913d 8281 2bbd 5e9d 7d3c
00000050: efa8 8b3d c559 f4bd 4286 1ebd 6afb 093d
00000060: b69a 98bd 0207 2bbe 7f0c 98bd c64f 58be
00000070: 0ffa 97be 4ec0 a8be 61d0 02be 8ca4 d7bd
00000080: 6fa5 72bd 9e83 12be 8a83 86bd 9c9b 3ebd
00000090: 0e4a 1fbc a709 5fbc 81da 683d 7fe5 9dbd
000000a0: 3882 893c 3b5c 483d 01b3 d23c 8f9f c73d
000000b0: 9853 df3d fb87 e93c 1ddf 913d 1c10 da3d
000000c0: bdf7 893c 9d5d b73c eabf 9e3d 9594 333b
000000d0: 8cce 233c b006 a1bc 74c0 693d cf3f bfbd
000000e0: 595d 843d 87d3 a2bc 5250 aa3c b334 a33d
000000f0: d983 893d b1d9 27be 313b 89bc 0816 753d
00000100: de12 22bd 73c3 883d f451 333c 9cce b6bd
00000110: 0284 3abd 3df5 72bd 4d41 aabd c82f 0cbd
00000120: 7c64 7cbb 59f7 653d e8fc 2a3d 490e e33d
00000130: b612 73bc 78b2 90bc bd9b 983d 24d8 803c
00000140: a66f 76bd f843 5abc 9a68 223d 3295 cfbc
00000150: 9456 c4bd e58b 01bd 7e42 eebd 4410 2abe
00000160: 37fc 7fbd 405c 333c 30de 7f3d 02e5 913d
00000170: 90d8 803d 9c09 033e 3160 793c b914 803d
00000180: ad77 40be 345a 00be 1470 833d 786f 4dbd
00000190: 4fe5 8bbd 3bb6 a4bd 7756 14be 94dd d9bd
000001a0: 7ed3 27be 78f9 3e3d 2516 c93c 1bdf 2fbc
000001b0: 117f aa3d 7dd4 b2bd bd71 7fbd 0bf4 903c
000001c0: 05a3 0c3d d467 54bd aa5c 993e 7231 cc3d
000001d0: f3ee 0f3e 3af9 a0bd bc6d aa3d a717 d43b
000001e0: 8ee9 793d 9f22 8b3c a71e df3c 0fa8 8c3d
000001f0: 41ff 9dbc df85 6eba 6106 583c 7b48 77bd
00000200: 998e 95bd a8c9 103d eebc 643d cb65 e93c
00000210: 380e 1e3e 5cb9 023d 71c5 7ebd 40e0 b3bd
00000220: 2380 2dbe a2b9 01be d52c 79bd 55e9 0ebe
00000230: 9952 0dbe f5e9 10be 251a 01be 7a4c f7bd
00000240: 86ed 163c 05d7 f3bd e0e3 b0bd a244 903d
00000250: eece 93bd 5e5e b7bc d0cf 453d ae30 87bc
00000260: 4763 7d38 684b 8abd 5dbb 853d 3cee d7bd
00000270: 3837 c9bd a823 aebd f683 97bd a98c c3bd
00000280: 22f1 45be c94e 05be 14de 653e 8f75 8c3e
00000290: 9819 193e 185a aabd a77c 2cbb 4348 813d
000002a0: 0963 89be 2cb3 70be 8a5b 56be 7eed 2e3d
000002b0: 6077 053d bb0b e03d 55d5 a83c 501f 07bd
000002c0: aa00 2dbe b16e e6bd ece8 f6bd 57ab 0bbd
000002d0: 0eeb ddbd 79a6 bcbd 4366 f6bd 31bb 143e
000002e0: 31f9 a03d 8950 bf3c 7e10 553c 0e2e 07be
000002f0: 11b5 bcbd be2d dc3d 74ef 8f3c a272 9cbd
00000300: 6d3b bbbd 8551 c7bd 7253 253d bd0f 02bd
00000310: 2aac b3bd 1dd0 6dbe c891 2e3e 1659 fd3d
00000320: 23d6 9a3d 34e2 cb3c 4dc6 e2bd 15d1 08be
00000330: 161f e9bd 0f95 88bd df1f 373c fa4a 963b
00000340: 686c a4bd 5125 9bbc c8ce ecbd 47d5 d8bd
00000350: 3d2a 6bbe 45f6 a6bd 28ef 1ebe 4480 b1be
00000360: 6f36 ff3b 133d 373d 7d95 35bd 3491 f5bc
00000370: a946 943d 2324 c23c c5e6 a1bd 58d2 2fbd
00000380: 91d5 83bd 2434 f1bc c0a7 57bd dcbb 17be
00000390: ebdc fbbd 62c1 8abc ea1e 0bbd 3278 18bd
000003a0: 152b b93d 60d9 963d a5cd 263e 7fec 573e
000003b0: b95d 7d3d af98 533d 345d 87bd e23e 65bd
000003c0: 34fb 9bbe 156d 7fbe f319 8ebe ed83 7ebe
000003d0: c053 9abe 03b0 8bbd f6fc cabd 9a78 14be
000003e0: 718e cabd 3882 213e bac2 183e 850b 153e
000003f0: 3429 bebd ebf5 27be 7938 a8bc 43c2 fe3d
0.09816845 0.11931601 0.12056008 -0.099424794 -0.050631717 -0.09029377 0.009941445 -0.07202067
-0.02168282 -0.061049733 -0.064193666 0.092322715 -0.097401775 -0.032962445 -0.059823126 -0.11265913
-0.06955736 0.07116894 -0.041871555 0.015479414 0.06819331 -0.11931185 -0.038702257 0.033687033
-0.07451384 -0.16701892 -0.074242584 -0.21124181 -0.29682967 -0.32959217 -0.12774803 -0.10529432
-0.0592398 -0.1430802 -0.06568058 -0.04653512 -0.009722246 -0.013613141 0.056849007 -0.077097885
0.016785726 0.048916083 0.025720121 0.0974723 0.10904616 0.028507223 0.071226336 0.10647604
0.016841764 0.022383505 0.077514485 0.0027401794 0.009997975 -0.01965651 0.057068303 -0.093383424
0.06463117 -0.019876255 0.020790253 0.07969036 0.06714601 -0.16391636 -0.016751857 0.059835464
-0.039568774 0.06677904 0.010944832 -0.08926126 -0.04553605 -0.05931591 -0.083132364 -0.034225255
-0.0038512042 0.056144092 0.041745096 0.11086709 -0.014836004 -0.017663226 0.0745158 0.015728064
-0.06016507 -0.013321869 0.039650537 -0.025339697 -0.09586826 -0.031627554 -0.11633776 -0.16607767
-0.06249639 0.010947287 0.062467754 0.07123758 0.06291306 0.12796634 0.015220688 0.062539525
-0.18795653 -0.1253441 0.064178616 -0.050155133 -0.068308465 -0.0804257 -0.14486109 -0.10637966
-0.16389272 0.04662463 0.024546692 -0.010734345 0.08325017 -0.08731935 -0.06236433 0.017694494
0.034335155 -0.05185683 0.2995351 0.099703684 0.14055996 -0.07860036 0.083217114 0.006472546
0.06101375 0.016984282 0.027236296 0.06867992 -0.019286754 -0.0009098928 0.013185115 -0.060371857
-0.07302589 0.035348564 0.05584424 0.028490921 0.15435112 0.031915054 -0.062200014 -0.08783007
-0.16943412 -0.1266847 -0.06083377 -0.13956197 -0.1380104 -0.14151748 -0.1260763 -0.120751336
0.009211903 -0.11906246 -0.08637214 0.07044341 -0.07217203 -0.022383865 0.04829389 -0.016502704
6.041236e-05 -0.06752664 0.06529877 -0.105434865 -0.09824985 -0.08502895 -0.073982164 -0.09548313
-0.19330266 -0.13018335 0.22447997 0.2743344 0.1495117 -0.08317965 -0.0026319416 0.06312611
-0.2683337 -0.23505849 -0.20933357 0.04270696 0.032584548 0.109397374 0.020609537 -0.032988846
-0.16894785 -0.112515815 -0.12056145 -0.03409895 -0.10835849 -0.0921144 -0.120312236 0.14524533
0.078600295 0.023353832 0.01300442 -0.13201162 -0.09214223 0.10750912 0.017570235 -0.07639052
-0.09142194 -0.097323455 0.040362783 -0.03175329 -0.08773072 -0.2322392 0.17047799 0.123705074
0.075603746 0.024888135 -0.11072979 -0.13361008 -0.11382882 -0.06669056 0.011177032 0.0045865746
-0.08028489 -0.018938692 -0.11562878 -0.105875544 -0.22965331 -0.08152441 -0.15520918 -0.3466817
0.0077884714 0.04473598 -0.044332016 -0.029976465 0.0724004 0.023698872 -0.07905344 -0.04292521
-0.06437219 -0.029443808 -0.052650213 -0.14817756 -0.12297996 -0.016937915 -0.03396503 -0.037224002
0.0904142 0.0736568 0.16289385 0.2108631 0.06185696 0.051659282 -0.06609574 -0.055968173
-0.3046509 -0.24943955 -0.27754173 -0.24855013 -0.3014202 -0.06820681 -0.0991153 -0.14499131
-0.0989045 0.15772331 0.14918032 0.14555176 -0.092852026 -0.16402404 -0.02053474 0.12439396

block.2.bias f4 [16]
00000000: 59c7 a0bd 223c b73d 6250 0b3d 9455 babd
00000010: 6744 fcbb 5294 e5bd dd43 09be d5bd 28bd
00000020: da14 b0bd 0d98 8fbc b717 963a f07c 823d
00000030: e061 16bd 6462 d3bd 2d09 d43c ddfa 02be
-0.078505225 0.08947016 0.034012206 -0.09098354 -0.007698584 -0.112099305 -0.13404794 -0.041196663
-0.08597727 -0.017528558 0.0011451159 0.06371486 -0.036714435 -0.10321501 0.025883282 -0.12791009

block.5.weight f4 [10, 12544]
00000000: 371c 983a 2e75 103c ea15 e03b f7b5 a43b
00000010: dcbf c33a bd86 06bc d981 6eb9 d711 63bc
00000020: e5f4 21bd 8531 f2bc e153 f8bc e725 aabc
00000030: 2a58 003b 94a9 29bd 2c53 79bd 2416 4ebd
00000040: c8c8 13bd 54a4 17bc 2ee6 c5bc 101a edbc
00000050: 8027 ebbc 97f4 59bd c3f5 b7bc 1adb 96bc
00000060: 44e6 7339 b76a 12ba 75a8 d9bb d73d 1cbb
00000070: 8a26 a2bb a3d9 2cbc afba 05bc 0dd3 05bc
00000080: 3e24 a3bb a7bd 42bc d5fc 5bbc 94c9 a7bb
00000090: efb8 bdbc 4f1c c1bc 79db 0fbd 7f77 f3bc
000000a0: 18a9 94bc 548d a8bc 0e84 19bd 2bac 0cbd
000000b0: f478 2bbd c991 3cbd 37d4 67bd 6b6f 1fbd
000000c0: b8ba adbc 54cd c0bc dc98 55bc f284 8cbc
000000d0: d5b2 92bc 2979 3fbc 57c2 2ebb 87eb 183c
000000e0: a18b 2fbc 1d0d d1bb da1c 0dbc 9081 56bc
000000f0: 32f6 ddbb 3037 83bc 36b6 71bc 415b b9bc
00000100: 955e 3fbd 4e85 58bd 5230 89bd ca14 73bd
00000110: e9c7 8dbd 07c4 88bd 7899 81bd 547d b9bd
00000120: 4759 aebd 2d47 9cbd 4f57 cebd 1496 8fbd
00000130: 396e 6bbd d0d0 80bd e2b5 35bd ddb1 2ebd
00000140: 8f76 72bc 6c67 dbbb efde e4bb 7e3d ef3b
00000150: 2baa 67bc a085 96bc c278 c8bb a6c2 b6bc
00000160: 9e3b bfbc 928b 22bd 5fe7 77bd 9127 51bd
00000170: 5c9a 52bd 630e 69bd b92b bfbd 2f19 bfbd
00000180: 17fe a2bd 05ba 4fbd fd33 3fbd c1d0 4fbd
00000190: 70c1 25bd 12b2 4dbd 86d0 8bbd 5a26 9cbd
000001a0: 4686 97bd bbd4 b6bd 5514 83bd 4d3f 20bc
000001b0: 4d1e 95bb 8ef2 26bc b520 67bc 7fb3 2dbc
000001c0: 6130 22ba c80b 9ebc 57f3 87bc aa84 b9bc
000001d0: c37b 35bd b807 99bd 0685 74bd dd0d 4abd
000001e0: 12ba 84bd cecf a1bd 2098 9dbd aa3d 9dbd
000001f0: 33bb 80bd 82eb 14bd cecc e3bb 6092 0ebd
00000200: 030d 65bd ea7b 1ebd f1de 29bd d994 d4bc
00000210: 2bb2 31bd 03e5 32bd cdca 093c ed49 ddbc
00000220: 3344 7ebd 1972 8abd 777d d7bc 742c 65bc
00000230: 4d4e 01bc 9605 82bc 516f c0bc 504e bebc
00000240: f826 7fbd f3ef 9ebd 1c30 33bd 670c 30bd
00000250: b7b3 83bd f4db 7abd 1c10 58bd 1b5c d0bc
00000260: a19e 60bc dc67 813c 2420 9b3c 9021 62bc
00000270: d0f6 38bc 2745 b8bc 586a 69bd 62e4 2cbd
00000280: 6136 4f3c b656 f13c cd7c e03c 72aa 60bd
00000290: 2770 a9bd 7e44 9fbd 6c22 86bd fc02 c6bd
000002a0: af97 25bc 93b0 2dbc 705b e3bc 6c2e 1dbd
000002b0: 7125 93bd f1e5 5fbd 80e3 1cbd d3d6 18bd
000002c0: 0fa0 37bd e62d 3cbd 382f 0c3c a741 ab3c
000002d0: d50d 92bc 684e 2bbc e109 09bd f6ed 01bd
000002e0: 3660 05bd 13de 0f3c c448 303d e973 473c
000002f0: 320e 2cbc e261 ab3b c83e 6ebc bf16 0cbc
00000300: ca8a 28bd f1e5 99bd e09d f3bd ffab c2bd
00000310: 2f82 0cbc 8faa 0cbc 3c54 e9bc 4cb7 5bbd
00000320: 7073 5dbd 3e3a 45bd 9e45 11bd de16 f5bc
00000330: 80ec 06bd 67fc d4bc 66a6 2e3c 509c 72ba
00000340: 8e53 27bd 873b b8bc 9801 b33c 95c2 213d
00000350: a9a6 2c3d 78c2 3c3d b402 523d 6b2a 70bc
00000360: f6e1 81bc e1ac 1fbd 3141 15bc a3fa 583d
00000370: 3948 c03c d9f1 d7bd badc 04be 1338 04be
00000380: eff9 3cbc cd13 f2bb bc52 1cbd a147 5dbd
00000390: 890d 67bd 0f64 46bd 94bb f0bc 20ad 8bbc
000003a0: 122e 98bc 8ae4 e5bc 033a 693c 1767 a43c
000003b0: beed 55bb 110f 02bb 4101 1cbb 2f5c 273c
000003c0: 8bae e53c 867a e4bc 9630 bbbc 008f 59bb
000003d0: 9fd7 b83c 5e9c e2bc 8801 2bbd 8d19 923c
000003e0: 24f1 f4bc 4f1a e8bd 277f e8bd dad2 e1bd
000003f0: 58d6 2abc e00a 3bbc 0964 20bd 94f1 7abd
0.0011605088 0.008817 0.00683855 0.0050265747 0.0014934498 -0.008210835 -0.00022745821 -0.013859234
-0.03954019 -0.029564628 -0.030313434 -0.020770026 0.00195838 -0.041421488 -0.060870335 -0.050314084
-0.03608015 -0.0092554875 -0.02415761 -0.028943092 -0.028705359 -0.053211775 -0.022456056 -0.018415023
0.00023260067 -0.000558536 -0.006642396 -0.002384057 -0.004948442 -0.0105499355 -0.008162185 -0.008167994
-0.0049786856 -0.011886037 -0.013426979 -0.0051204655 -0.023159472 -0.023573069 -0.035121415 -0.029720066
-0.018147036 -0.020575203 -0.037479453 -0.03434388 -0.041863397 -0.04603747 -0.05659887 -0.038924616
-0.021207199 -0.023535408 -0.013036933 -0.017153237 -0.01790754 -0.011686602 -0.0026666129 0.009333498
-0.0107144425 -0.006379737 -0.008612836 -0.013092414 -0.0067737335 -0.016017526 -0.014752915 -0.022626521
-0.04672106 -0.052861504 -0.066986695 -0.059345998 -0.069228955 -0.06678014 -0.063281 -0.090571076
-0.08513122 -0.07630763 -0.100752465 -0.07011047 -0.057478163 -0.06289828 -0.04436291 -0.042650092
-0.014798774 -0.0066956785 -0.0069845836 0.0073010316 -0.014139692 -0.018374264 -0.006117911 -0.022309612
-0.023343857 -0.039683886 -0.060523387 -0.051063124 -0.05141674 -0.056898486 -0.09334511 -0.09330975
-0.0795862 -0.05071451 -0.04668044 -0.050736193 -0.04046768 -0.05021865 -0.06826882 -0.076245025
-0.073986575 -0.08927294 -0.064003624 -0.009780717 -0.0045507313 -0.0101896655 -0.014106919 -0.010601877
-0.00061870186 -0.019292727 -0.016595526 -0.022646267 -0.04430748 -0.07472175 -0.059697174 -0.049329627
-0.064808026 -0.07900964 -0.07695031 -0.07677777 -0.062857054 -0.03635741 -0.006951905 -0.034807563
-0.055920612 -0.038692392 -0.04147238 -0.025949882 -0.043382805 -0.043675434 0.008410168 -0.02701279
-0.06207676 -0.06760044 -0.026304943 -0.013987649 -0.0078922035 -0.015871804 -0.02349058 -0.023230702
-0.062293023 -0.077606104 -0.043747053 -0.042980578 -0.06430762 -0.06124492 -0.052749738 -0.025434544
-0.013709695 0.015796594 0.018936224 -0.013801947 -0.011289313 -0.022493912 -0.056986183 -0.04220999
0.012647242 0.029460292 0.02740326 -0.05485005 -0.082733445 -0.07776736 -0.06549534 -0.09668538
-0.010106965 -0.010601181 -0.027753562 -0.03837435 -0.07184876 -0.05466265 -0.0383029 -0.037314247
-0.04483038 -0.04594221 0.00855618 0.020905329 -0.017828861 -0.010455705 -0.033456687 -0.031721078
-0.032562457 0.008780974 0.043038145 0.012173631 -0.010501431 0.0052301744 -0.014541335 -0.008550345
-0.041147985 -0.07514561 -0.11895347 -0.09505462 -0.00857596 -0.008585586 -0.028482549 -0.053641602
-0.054065168 -0.048151247 -0.035466783 -0.02991813 -0.032940388 -0.025999261 0.01065979 -0.000925486
-0.04085117 -0.022489322 0.021851346 0.03949221 0.042151127 0.046083897 0.05127211 -0.014658551
-0.015854817 -0.03898323 -0.009109781 0.0529734 0.023471938 -0.10544176 -0.12974826 -0.12912016
-0.011534198 -0.0073876143 -0.03816484 -0.05402339 -0.056409393 -0.048435267 -0.02938632 -0.017050326
-0.018576656 -0.028063077 0.0142350225 0.020068688 -0.0032642926 -0.0019845406 -0.0023804458 0.010214849
0.02803733 -0.027890455 -0.022850316 -0.0033196807 0.022563754 -0.027662452 -0.041749507 0.01783445
-0.029900141 -0.11333143 -0.113523774 -0.11026545 -0.01042708 -0.011416167 -0.0391579 -0.061265543

block.5.bias f4 [10]
00000000: fc5d 003b fd06 8d3d ddae 993d 0f50 a33d
00000010: 7826 5abd 2702 253d 5ce9 493c 7d1d 6a3d
00000020: bbd6 05bd be12 133c
0.001958727 0.068860985 0.07504056 0.07974254 -0.053259343 0.040285256 0.012323704 0.05715703
-0.032675486 0.008976636
